snigdhaos-chrome-config/google-chrome/optimization_guide_model_store/20/E6DC4029A1E4B4C1/6E8B4B4E33E34FD8/model.tflite (tflite, 64852 bytes, 5 tensors)

arith.constant f4 [1, 64]
-0.052652005 -0.14412843 0.24645156 0.17087977 -0.20625167 0.13643831 -0.093871854 0.0718541
0.30490607 -0.19054922 -0.23418622 0.04584308 -0.29385838 -0.0800704 0.36804885 -0.29413393
0.31472036 0.25090075 -0.09976871 0.21604554 0.29650068 0.34693745 -0.108754076 0.31695074
0.15581225 0.36035776 0.23935838 -0.33094373 -0.22914514 -0.18159693 -0.240511 0.3376297
-0.2781474 -0.22447741 0.28231227 0.22676565 -0.13830474 0.21961427 -0.2441467 0.20241368
0.15149017 -0.068519816 0.32134506 0.15053695 0.2531943 0.03361067 0.21682349 -0.17738202
-0.27854064 0.2386115 -0.20958206 0.23397978 -0.26512286 -0.12526605 0.289151 0.3917401
0.113388635 -0.21486586 -0.0061703697 0.031378593 0.027716555 0.00793141 0.09088689 0.026520768
00000000: a1a9 57bd 6796 13be cc5d 7c3e 1bfb 2e3e
00000010: a333 53be 7cb6 0b3e e33f c0bd 3e28 933d
00000020: a61c 9c3e 561f 43be 83ce 6fbe f4c5 3b3d
00000030: 9b74 96be f3fb a3bd e670 bc3e b998 96be
00000040: 0723 a13e 1076 803e 8a53 ccbd 0b3b 5d3e
00000050: f0ce 973e c9a1 b13e 75ba debd 5e47 a23e
00000060: 3f8d 1f3e d080 b83e 5d1a 753e 7571 a9be
00000070: 06a5 6abe 8cf4 39be 8448 76be cddd ac3e
00000080: 5669 8ebe 68dd 65be 3c8b 903e 4135 683e
00000090: c29f 0dbe 90e2 603e 9801 7abe 8845 4f3e
000000a0: 3d20 1b3e 1e54 8cbd 5787 a43e 5c26 1a3e
000000b0: afa2 813e 58ab 093d fa06 5e3e a2a3 35be
000000c0: e19c 8ebe 9356 743e ae9c 56be 6598 6f3e
000000d0: 2fbe 87be be45 00be 9a0b 943e 2992 c83e
000000e0: 4d38 e83d cc05 5cbe d030 cabb d786 003d
000000f0: d40d e33c bff2 013c e822 ba3d 1542 d93c

arith.constant1 f4 [64, 128]
0.09030919 0.083607145 0.10645628 -0.067312874 0.118072085 0.17524935 0.051376343 -0.1247037
-0.113925174 -0.17989653 0.13497819 -0.017633932 -0.07718942 -0.18399669 -0.096823074 -0.069644555
0.10722731 0.06305917 0.109348 0.03425046 -0.09447642 0.1388202 0.17554279 -0.14204454
-0.14576614 0.088517204 0.12098792 -0.124351375 -0.09810172 0.14900081 -0.08073559 -0.1393881
0.08651443 0.038610738 -0.012073676 -0.012042488 -0.033082437 -0.1418683 -0.19502825 -0.153807
0.14481832 -0.09360771 0.10261815 -0.12083028 -0.11990162 -0.051756863 0.020867437 0.015994275
-0.16526802 -0.15259974 0.0022881564 -0.1078708 -0.19124615 0.029656086 0.053346157 -0.102695644
0.15914844 -0.11899776 -0.15130515 0.15712416 -0.043160416 -0.13416737 0.049965058 -0.046773314
-0.17621303 0.16705504 0.054721057 0.09215853 -0.04953904 0.094598226 0.094530314 -0.09033152
0.1225964 0.09345722 -0.041689474 -0.05738471 -0.091619074 0.042808704 0.14401759 -0.04413961
0.065724865 -0.058249485 0.15956983 -0.025523055 -0.024685044 0.10427674 -0.13148093 0.042256087
0.11812065 -0.081058644 -0.092777975 -0.15015289 -0.053900607 0.12748641 0.15467815 0.089270055
-0.064767584 -0.082719915 0.009966199 -0.08622742 0.10822046 0.06767153 0.10055996 0.13576134
-0.028133104 0.020335348 0.07478181 0.021571668 -0.06710019 -0.024332142 -0.17227319 0.11197813
0.12199858 0.143276 -0.14622007 0.034142975 -0.060054343 0.08352261 0.01244169 -0.110197626
0.17159301 0.011154703 0.083742544 -0.033769745 0.1436324 0.024748502 -0.07295717 -0.032814458
-0.015805623 -0.18008357 -0.13147955 -0.0130387405 -0.103293836 -0.041570164 0.08508029 -0.083760954
0.08768023 0.13045883 -0.02587554 -0.12819313 -0.10995219 -0.03992235 0.15180138 -0.005793042
0.16177438 -0.10458731 -0.018919555 0.18533893 0.017490175 0.16834822 -0.13987896 -0.16451351
0.021155583 0.14778358 0.012420865 0.15571643 -0.095715754 -0.07455902 -0.04557165 -0.113989316
-0.08907662 0.062187295 -0.09946938 -0.14832993 -0.17004631 0.061177865 -0.13319385 -0.094801255
0.05128013 0.02300552 -0.071799904 0.012423887 0.088649444 -0.16469544 0.14392474 0.017051226
0.084706575 0.12625962 -0.1775759 0.10885027 -0.10344502 -0.0022406399 0.04909668 -0.08953544
0.047156867 0.101258144 -0.061734155 -0.15226023 0.16171832 -0.04860452 0.083691426 -0.15479779
0.16650549 -0.031077443 0.0041240365 -0.088703685 -0.07764573 0.065225035 -0.10247234 0.14707434
0.13966027 0.16721825 0.13872957 0.0021836523 -0.08865843 0.13765569 -0.016847257 0.09842155
-0.02917438 0.15449072 -0.12252213 0.07717424 0.03657522 -0.14764878 0.035091292 -0.116226494
0.07751527 -0.085249804 0.13906036 -0.025080206 0.08564788 -0.0026097344 -0.13802934 0.07027445
-0.09784969 0.16453454 -0.12763897 -0.16773634 0.116573684 -0.070836775 0.049122974 -0.040214773
-0.15581565 0.04605771 -0.029768916 -0.086430416 0.07755745 -0.15005067 -0.19853285 -0.040065322
-0.08596863 -0.09746168 -0.054270245 0.10666128 -0.20262238 -0.10090578 -0.22185521 0.14247419
-0.031501997 -0.11399095 -0.16341914 0.06092033 0.18795812 -0.037237056 0.060356487 0.0122095505
00000000: 06f4 b83d 393a ab3d c005 da3d 55db 89bd
00000010: c7cf f13d 9174 333e 0070 523d a764 ffbd
00000020: 9a51 e9bd cc36 38be b937 0a3e 0975 90bc
00000030: 7d15 9ebd a169 3cbe 2d4b c6bd cea1 8ebd
00000040: fe99 db3d 2b25 813d d8f1 df3d 364a 0c3d
00000050: da7c c1bd e226 0e3e 7dc1 333e 2074 11be
00000060: b843 15be 8248 b53d 84c8 f73d efab febd
00000070: 8ee9 c8bd ab93 183e b358 a5bd c1bb 0ebe
00000080: 7a2e b13d 4b26 1e3d abd0 45bc db4d 45bc
00000090: 7381 07bd ec45 11be 7cb5 47be 957f 1dbe
000000a0: 414b 143e 66b5 bfbd 7729 d23d de75 f7bd
000000b0: fb8e f5bd 01ff 53bd 30f2 aa3c 6d06 833c
000000c0: 053c 29be 1b43 1cbe e5f4 153b 5eeb dcbd
000000d0: 08d6 43be 52f1 f23c 8081 5a3d 1852 d2bd
000000e0: cff7 223e 19b5 f3bd bdef 1abe 28e5 203e
000000f0: fac8 30bd 2c63 09be 29a8 4c3d 6095 3fbd
00000100: 3071 34be 7a10 2b3e 3023 603d 9dbd bc3d
00000110: 73e9 4abd b7bc c13d 1c99 c13d bbff b8bd
00000120: d213 fb3d 8066 bf3d 95c2 2abd 3b0c 6bbd
00000130: c8a2 bbbd 2e58 2f3d 5979 133e bccb 34bd
00000140: c29a 863d 0397 6ebd 4666 233e ba15 d1bc
00000150: 4a38 cabc 0b8f d53d f0a2 06be b814 2d3d
00000160: 3de9 f13d 1302 a6bd 6102 bebd aec1 19be
00000170: e2c6 5cbd cc8b 023e f363 1e3e 38d3 b63d
00000180: dea4 84bd 0f69 a9bd 4549 233c 0098 b0bd
00000190: b0a2 dd3d 5f97 8a3d 61f2 cd3d 0505 0b3e
000001a0: 6577 e6bc 5196 a63c 3527 993d 11b7 b03c
000001b0: d36b 89bd 3354 c7bc 6268 30be ca54 e53d
000001c0: 64da f93d f2b6 123e b7ba 15be 81d9 0b3d
000001d0: 8bfb 75bd e70d ab3d 3bd8 4b3c 4baf e1bd
000001e0: 14b6 2f3e 37c2 363c 3681 ab3d 2552 0abd
000001f0: 5f14 133e 5fbd ca3c 926a 95bd 7468 06bd
00000200: cb7a 81bc d467 38be 93a2 06be 71a0 55bc
00000210: b88b d3bd 7a45 2abd 933e ae3d dd8a abbd
00000220: b191 b33d 0097 053e f1f8 d3bc 0f45 03be
00000230: 9d2e e1bd 9e85 23bd d271 1b3e 8fd3 bdbb
00000240: 2fa8 253e df31 d6bd 2ffd 9abc 7dc9 3d3e
00000250: 8e47 8f3c 7a63 2c3e 6e3c 0fbe 3b76 28be
00000260: 794e ad3c 9454 173e e280 4b3c 2174 1f3e
00000270: 9f06 c4bd 66b2 98bd 57a9 3abd 3b73 e9bd
00000280: ce6d b6bd 1bb8 7e3d 9ab6 cbbd cde3 17be
00000290: 9f20 2ebe a495 7a3d f863 08be 2927 c2bd
000002a0: 1d0b 523d 1376 bc3c d40b 93bd 8f8d 4b3c
000002b0: d78d b53d eca5 28be 0261 133e 03af 8b3c
000002c0: a47a ad3d 344a 013e 75d6 35be e4ec de3d
000002d0: fcda d3bd b3d7 12bb 9a19 493d 5b5e b7bd
000002e0: 8f27 413d 6e60 cf3d f4dc 7cbd 1bea 1bbe
000002f0: 7d99 253e 8815 47bd 6966 ab3d 5083 1ebe
00000300: 6a80 2a3e 1f96 febc ed22 873b 47aa b5bd
00000310: b904 9fbd b494 853d 05dd d1bd a89a 163e
00000320: 1a03 0f3e 433b 2b3e 200f 0e3e 9b1b 0f3b
00000330: 8d92 b5bd 9df5 0c3e 4203 8abc 3d91 c93d
00000340: 1cff eebc d132 1e3e e2ec fabd 870d 9e3d
00000350: e6cf 153d 3e31 17be e3bb 0f3d 2808 eebd
00000360: 53c0 9e3d 7397 aebd d765 0e3e 0175 cdbc
00000370: 2868 af3d 1408 2bbb 9057 0dbe 0dec 8f3d
00000380: 6b65 c8bd be7b 283e cab3 02be 13c3 2bbe
00000390: 2fbe ee3d df12 91bd 2c35 493d 3fb8 24bd
000003a0: 238e 1fbe 02a7 3c3d f1dd f3bc 6e02 b1bd
000003b0: 71d6 9e3d e2a6 19be 324c 4bbe 891b 24bd
000003c0: 5210 b0bd fd99 c7bd 7a4a 5ebd 3b71 da3d
000003d0: 3e7c 4fbe b1a7 cebd 032e 63be c1e4 113e
000003e0: 3d08 01bd 1674 e9bd 5957 27be 9987 793d
000003f0: 1878 403e e285 18bd 5d38 773d 910a 483c

arith.constant2 f4 [128, 12]
0.12996536 -0.14927512 0.01549344 -0.15044549 -0.0354586 0.006851896 0.124498256 -0.07154028
-0.22046098 -0.11111798 0.0001124712 0.24350844 -0.00037749627 0.056432977 0.29354975 0.049846828
0.20064865 0.1499797 0.002462617 0.15069295 0.00010090678 0.057847075 -0.004833132 0.0052300706
-0.23625247 -0.113123715 -0.010143703 -0.14380364 0.20921677 -0.009538248 0.046228014 -0.059135858
-0.10792605 -0.08740889 -0.09820335 -0.0909443 0.10462312 0.10350964 -0.12676449 0.019468887
-0.13929862 -0.1456345 -0.22372094 -0.13470647 -0.07738036 0.24247386 0.0991499 0.19303754
-0.22589451 0.22034506 -0.14466083 -0.15196705 -0.14156781 0.008967045 0.12943596 0.17784818
0.02025917 0.15614778 0.07149504 0.21284397 0.08984933 0.12634642 -0.041336894 0.04106156
0.06955813 -0.09171171 0.11614819 0.13977945 -0.08918399 -0.048302505 0.0070201377 -0.18417934
-0.18361175 -0.13808666 -0.108565636 0.143593 0.04201163 0.03519195 0.08238058 -0.005044877
-0.1163783 -0.05364587 0.12796633 0.21459042 0.1999924 0.19158503 -0.11783161 -0.09317944
-0.058881603 -0.14248505 0.19860074 0.124793105 0.102100626 -0.06435764 -0.20330529 0.0060534966
0.15046142 -0.14900568 -0.03974834 -0.022503138 0.047204513 -0.17988472 -0.13518853 -0.046876546
-0.12460612 0.08918589 0.12450237 -0.23683555 -0.16616537 0.09582806 -0.18847783 0.14912778
-0.049697127 0.12040494 -0.20645747 0.061811276 -0.06548926 -0.028659105 -0.122715645 -0.14412436
0.05138209 -0.16562465 -0.14015152 0.11158253 0.046723865 0.062417798 -0.06765794 -0.021347487
0.085090816 -0.08109403 0.058882542 -0.07953566 -0.082921825 -0.024736935 0.1520629 0.029972624
0.07533614 -0.03118484 -0.20197606 0.020413548 -0.18646652 0.15434843 -0.17797089 -0.19960952
-0.079119444 0.044144195 0.1895093 -0.24047478 0.0064346865 0.09148589 -0.014809922 -0.062105674
0.062052507 -0.14321585 0.042668357 -0.1278006 -0.03542048 0.16377783 -0.07577753 0.053201366
0.20233522 0.052717682 -0.2784718 -0.13981065 -0.036959976 -0.13730592 0.06765923 -0.05407735
0.13093427 -0.10510539 0.19967766 -0.07451379 0.053864915 0.19658165 0.16374242 0.21641523
-0.16811696 -0.03205769 -0.044804525 -0.049730584 0.08526664 0.06841767 -0.025460133 -0.043890405
0.14692509 -0.02047575 0.19124566 0.044004973 -0.0032567936 0.21958491 0.067242935 -0.05749148
-0.17930232 0.15740304 0.05950658 -0.21260521 0.089253224 -0.17101523 0.07548762 -0.17794542
-0.03809618 0.03369036 0.23137353 -0.042203773 -0.12003579 -0.07262535 -0.024433622 -0.0854601
0.09272586 0.22188665 -0.19086623 -0.12206291 0.036093533 0.1319427 0.14703074 -0.19486439
0.028156433 -0.1065051 -0.18744108 0.15490043 0.19007356 0.038464792 0.13178417 -0.08885092
-0.041608732 -0.1080851 0.018692853 0.13007595 -0.10531994 0.03616759 -0.2330465 0.11426392
-0.036097005 0.12887134 -0.1360827 -0.041283764 -0.21863179 0.15644582 0.24630964 -0.033229064
-0.05499187 -0.17744033 -0.11925831 -0.049028356 -0.12115377 -0.19439805 -0.12935168 -0.08484074
-0.15774246 0.23126917 0.04034856 0.06848147 -0.12487508 -0.063610464 0.090079464 -0.19994478
00000000: a415 053e 94db 18be 33d8 7d3c 620e 1abe
00000010: 093d 11bd df85 e03b f1f8 fe3d b683 92bd
00000020: 86c0 61be d391 e3bd 84de eb38 475a 793e
00000030: b1ea c5b9 4426 673d 274c 963e 302c 4c3d
00000040: d776 4d3e 4794 193e db63 213b 414f 1a3e
00000050: ea9d d338 0ef1 6c3d 405f 9ebb 0361 ab3b
00000060: 2bec 71be 68ad e7bd c631 26bc 4341 13be
00000070: ec3c 563e 5046 1cbc 9659 3d3d 7138 72bd
00000080: 5508 ddbd 6f03 b3bd d71e c9bd 0141 babd
00000090: a544 d63d ddfc d33d 8dce 01be 377d 9f3c
000000a0: 4ca4 0ebe 3621 15be 1a17 65be 7ef0 09be
000000b0: 9879 9ebd 114b 783e 1a0f cb3d a2ab 453e
000000c0: e450 67be 23a2 613e f821 14be 409d 1bbe
000000d0: 27f7 10be 83ea 123c dc8a 043e d51d 363e
000000e0: 8ff6 a53c 34e5 1f3e fe6b 923d c5f3 593e
000000f0: ed02 b83d f560 013e e050 29bd 2b30 283d
00000100: 7e74 8e3d 59d3 bbbd 1adf ed3d 5822 0f3e
00000110: 19a6 b6bd d9d8 45bd 2f09 e63b 8299 3cbe
00000120: b804 3cbe 9766 0dbe a957 debd 0b0a 133e
00000130: 6314 2c3d 6f25 103d 26b7 a83d 7f4f a5bb
00000140: bf57 eebd c6bb 5bbd 9b09 033e 97bd 5b3e
00000150: cfca 4c3e de2e 443e b351 f1bd ddd4 bebd
00000160: d62d 71bd 9ae7 11be fe5d 4b3e 8793 ff3d
00000170: 221a d13d f0cd 83bd 432f 50be 695c c63b
00000180: 8f12 1a3e f294 18be 28cf 22bd 8058 b8bc
00000190: 8559 413d b333 38be dd6e 0abe 9f01 40bd
000001a0: 7e31 ffbd 18a7 b63d 19fb fe3d 0585 72be
000001b0: 4127 2abe 8041 c43d 5500 41be f4b4 183e
000001c0: 378f 4bbd dd96 f63d 9669 53be d22d 7d3d
000001d0: 3c1f 86bd 80c6 eabc 5752 fbbd 5695 13be
000001e0: 0776 523d 8299 29be e183 0fbe 6285 e43d
000001f0: 8661 3f3d cea9 7f3d 3f90 8abd ede0 aebc
00000200: 1844 ae3d a014 a6bd d22e 713d 98e3 a2bd
00000210: ebd2 a9bd 1da5 cabc 60b6 1b3e 2689 f53c
00000220: d649 9a3d 5977 ffbc d0d2 4ebe 503a a73c
00000230: 14f1 3ebe 840d 1e3e 003e 36be 7066 4cbe
00000240: 6009 a2bd 8bd0 343d ba0e 423e 053f 76be
00000250: 10da d23b f45c bb3d 51a5 72bc 8562 7ebd
00000260: c52a 7e3d 2da7 12be 04c5 2e3d 29de 02be
00000270: 1115 11bd 60b5 273e 4031 9bbd ade9 593d
00000280: f730 4f3e 7fee 573d db93 8ebe 862a 0fbe
00000290: 5863 17bd ec99 0cbe ec90 8a3d 3680 5dbd
000002a0: a213 063e 7f41 d7bd 4d78 4c3e b09a 98bd
000002b0: 75a1 5c3d b34c 493e 18ac 273e f49b 5d3e
000002c0: da26 2cbe ed4e 03bd f384 37bd 4cb2 4bbd
000002d0: 47a0 ae3d 901e 8c3d c591 d0bc 6dc6 33bd
000002e0: 8873 163e c3bc a7bc e7d5 433e 8f3e 343d
000002f0: ee6f 55bb deda 603e aab6 893d 307c 6bbd
00000300: 079b 37be 432e 213e 2cbd 733d 2eb5 59be
00000310: 65ca b63d 9e1e 2fbe 4199 9a3d 5337 36be
00000320: bd0a 1cbd e7fe 093d 2fed 6c3e dddd 2cbd
00000330: 53d5 f5bd 99bc 94bd 0529 c8bc b405 afbd
00000340: 0ee7 bd3d 4136 633e 7072 43be 1efc f9bd
00000350: d0d6 133d fd1b 073e 3a8f 163e 888a 47be
00000360: 52a8 e63c 591f dabd 8ef0 3fbe 389e 1e3e
00000370: a5a2 423e 428d 1d3d 6ef2 063e 79f7 b5bd
00000380: eb6d 2abd b95b ddbd c121 993c a132 053e
00000390: fbb1 d7bd 7824 143d bea3 6ebe 3403 ea3d
000003a0: 74da 13bd d9f6 033e 4359 0bbe 2a19 29bd
000003b0: 03e1 5fbe 5533 203e 9838 7c3e 331b 08bd
000003c0: 283f 61bd ebb2 35be b33d f4bd f5d1 48bd
000003d0: 781f f8bd 4810 47be c474 04be fbc0 adbd
000003e0: 3d87 21be d3d1 6c3e 8844 253d 0340 8c3d
000003f0: 82be ffbd 3446 82bd 957b b83d 53be 4cbe

arith.constant29 f4 [64]
-0.06574382 0.011901829 0.034316048 -0.0065774354 -0.038133305 -0.06082491 -0.019204376 -0.014047077
-0.005126941 0.04663426 0.017762061 -0.01645206 -0.019986028 -0.014856231 0.07879657 -0.0212551
0.06607588 0.0074633863 -0.024177412 -0.07818588 0.038353737 0.06504843 -0.026270501 0.068380885
0.0039697685 0.06628997 0.031201085 -0.061973017 -0.028595172 -0.045810137 -0.045275614 0.06127633
0.006147249 0.021053983 0.035331067 -0.03355396 -0.026509715 0.044164225 0.0067666904 0.026505966
0.06682585 -0.006583118 -0.020499488 -0.011622414 -0.041170917 0.01365326 -0.024509251 -0.030412048
-0.027469335 -0.05004254 0.003586844 -0.022749 0.018396128 -0.057241805 -0.011638109 0.06702822
0.032178916 -0.001162337 -0.017280214 -0.016440399 -0.028758809 -0.0027690358 0.0017540719 -0.014942758
00000000: b2a4 86bd e4ff 423c fc8e 0c3d 8787 d7bb
00000010: ab31 1cbd 8a23 79bd 7f52 9dbc b625 66bc
00000020: e6ff a7bb 9103 3f3d be81 913c 78c6 86bc
00000030: bdb9 a3bc 8d67 73bc 1960 a13d 2d1f aebc
00000040: ca52 873d 6c8f f43b b50f c6bc eb1f a0bd
00000050: cf18 1d3d 1c38 853d 3c35 d7bc 470b 8c3d
00000060: d514 823b 09c3 873d 6b99 ff3c 6bd7 7dbd
00000070: 6c40 eabc 69a3 3bbd ec72 39bd e4fc 7a3d
00000080: dd6e c93b 6779 ac3c 4fb7 103d e16f 09bd
00000090: e72a d9bc 8ce5 343d 1dbb dd3b 0a23 d93c
000000a0: fedb 883d 32b7 d7bb 8bee a7bc f06b 3ebc
000000b0: d6a2 28bd ecb1 5f3c a0c7 c8bc b022 f9bc
000000c0: 5f07 e1bc 68f9 4cbd 4211 6b3b 1c5c babc
000000d0: 7ab3 963c 6276 6abd c4ad 3ebc 1746 893d
000000e0: 0ace 033d 8f59 98ba 3c8f 8dbc 04ae 86bc
000000f0: 9897 ebbc b678 35bb e3e8 e53a 78d2 74bc

arith.constant30 f4 [128]
0.02268901 -0.08056722 -0.027999738 -0.01394639 -0.011019386 -0.0053426274 0.02124533 0.019207528
0.06479516 -0.029025618 -0.032383464 0.02719317 0.016310338 0.0016008458 -0.015208288 -0.00045081406
0.038139958 -0.018151676 0.06733006 -0.011537418 0.017562602 0.043367416 -0.02546653 -0.044310514
-0.0054329145 0.052345604 -0.17218724 -0.102999665 0.040078633 -0.056784287 -0.06531974 -0.0818408
0.0011461657 -0.03027207 -0.016156092 -0.017710706 -0.07839494 0.07194191 -0.03451242 -0.043347877
-0.005731478 -0.004725685 -0.01816729 -0.029577883 -0.015293144 -0.010629509 -0.012142345 0.06416903
0.033732183 -0.05983218 -0.045296196 -0.0148891965 0.018629637 -0.04761057 -0.07570629 -0.017557736
-0.024381975 -0.01954486 -0.060457647 0.013959375 -0.025296567 -0.043858547 0.006850907 0.024224158
-0.0036202727 0.0030551257 -0.049797684 -0.04948619 0.007082099 0.02095401 -0.01466955 -0.104044385
0.03666535 -0.005749927 -0.084951006 0.018640898 -0.067502044 -0.06406334 -0.06857001 -0.068580315
-0.009143492 0.00043800255 0.012580789 0.013131913 -0.010974841 -0.031808473 0.04599905 -0.07030522
-0.003828095 0.01673342 -0.029857075 -0.10816827 -0.13171174 0.002947219 0.016420204 0.023897598
0.029080536 -0.013641794 -0.07786235 -0.041823294 0.0021766087 -0.05756255 -0.04526591 0.010697866
-0.055805698 -0.104317985 -0.055638094 -0.029801687 -0.052372433 0.051235985 -0.04131786 -0.01912943
0.12839523 0.035008438 -0.047018018 -0.13807471 -0.23649314 0.007348835 -0.17264254 0.026715934
-0.079111725 0.025278155 0.00804719 -0.13067584 0.031939108 -0.024162365 -0.027609423 -0.052609876
00000000: 4dde b93c 6d00 a5bd b55f e5bc 667f 64bc
00000010: a88a 34bc 3511 afbb b00a ae3c 1b59 9d3c
00000020: 53b3 843d 22c7 edbc 86a4 04bd 36c4 de3c
00000030: 429d 853c 79d3 d13a 2f2c 79bc 3d5b ecb9
00000040: a538 1c3d d3b2 94bc 58e4 893d 7007 3dbc
00000050: 72df 8f3c 08a2 313d 2f9f d0bc f17e 35bd
00000060: 9706 b2bb 5868 563d da51 30be 7df1 d2bd
00000070: 7e29 243d a496 68bd 5bc6 85bd 269c a7bd
00000080: f03a 963a 22fd f7bc c859 84bc 0b16 91bc
00000090: 878d a0bd 4856 933d e55c 0dbd 8b8d 31bd
000000a0: 1fcf bbbb ebd9 9abb 92d3 94bc 514d f2bc
000000b0: 1890 7abc 6427 2ebc b0f0 46bc 0d6b 833d
000000c0: c22a 0a3d 9712 75bd 8188 39bd d1f1 73bc
000000d0: 2e9d 983c 4d03 43bd e60b 9bbd 3ed5 8fbc
000000e0: b5bc c7bc 8b1c a0bc 70a2 77bd ddb5 643c
000000f0: bf3a cfbc 05a5 33bd 937d e03b be71 c63c
00000100: 1942 6dbb 8138 483b a8f8 4bbd 08b2 4abd
00000110: f410 e83b bea7 ab3c 8d58 70bc 3915 d5bd
00000120: 682e 163d e269 bcbb cbfa adbd ccb4 983c
00000130: 833e 8abd a433 83bd 6f6e 8cbd d673 8cbd
00000140: 96ce 15bc b5a3 e539 a71f 4e3c 3c27 573c
00000150: d2cf 33bc 9a49 02bd 8069 3c3d 2ffc 8fbd
00000160: c7e0 7abb 8614 893c d396 f4bc 5387 ddbd
00000170: 71df 06be 2126 413b aa83 863c e5c4 c33c
00000180: 4e3a ee3c d581 5fbc 4c76 9fbd e74e 2bbd
00000190: 6fa5 0e3b b5c6 6bbd bf68 39bd 1a46 2f3c
000001a0: 8494 64bd aba4 d5bd c5e4 63bd ab22 f4bc
000001b0: 7a84 56bd d3dc 513d eb3c 29bd 53b5 9cbc
000001c0: 0a7a 033e 0265 0f3d f795 40bd 7563 0dbe
000001d0: 422b 72be 7fce f03b 35c9 30be 60db da3c
000001e0: 5405 a2bd 2214 cf3c 5cd8 033c e3cf 05be
000001f0: 95d2 023d 27f0 c5bc 282d e2bc 747d 57bd
