snigdhaos-chrome-config/google-chrome/optimization_guide_model_store/20/E6DC4029A1E4B4C1/42848D19483DED82/model.tflite (tflite, 64852 bytes, 5 tensors)

arith.constant f4 [1, 64]
00000000: 4f5e 1abe 786e 673e 132e 98be 3177 a33e
00000010: 3a4a c6bd 13a1 913e 2d0f a43e 5c4a 663e
00000020: cfc4 3dbe acb9 413d 44c4 023d 5c9c d03e
00000030: 8b6d a6be 1af5 ab3e 801f 11be 4113 a3be
00000040: 0112 afbd 1795 c3bd 0f8f 07be 3285 7abe
00000050: f085 c4bd d5ec f9be c300 c83d 9896 643d
00000060: d46c 473e 64c8 6dbe a52d e5bd 3f93 913e
00000070: 4730 a4be 7e16 573e 9c1d 833c 0f10 133e
00000080: 08d5 8e3e f48a 38bc 515e 4bbe 0caa a7be
00000090: 5104 bdbe d005 953e a39c 60be 4638 363d
000000a0: 4d3e 7cbd e7b0 33be 00e0 d2bc 9ea0 93be
000000b0: 4f51 f8bd 320f 073f 1912 1cbe 198c c73e
000000c0: d055 8b3e 7756 023d 1ec7 223e 6dab 353e
000000d0: e3a1 e6bd 4458 f93d 89df a5be 4fed 16be
000000e0: f5cd 8dbc 9668 373d fca4 85be 3f91 7cbe
000000f0: 4cb1 a6bd bc1a 9fbe a846 ad3e e06d 833c
-0.15075038 0.22600734 -0.29722652 0.31926873 -0.09682126 0.28443202 0.32042828 0.22489303
-0.18532108 0.04729621 0.031925455 0.40744293 -0.3250545 0.33585435 -0.14172173 -0.31850627
-0.08548356 -0.09549921 -0.13238166 -0.24464872 -0.09595859 -0.488135 0.0976577 0.05580768
0.19475108 -0.23220974 -0.11190347 0.28432652 -0.32068083 0.21004674 0.01600533 0.14361595
0.27896905 -0.011263598 -0.19860198 -0.32746923 -0.36917356 0.29105997 -0.21934752 0.04448726
-0.061582852 -0.17547952 -0.025741577 -0.2883348 -0.121248834 0.5275756 -0.15241279 0.38974074
0.27213907 0.03182074 0.1589627 0.17741175 -0.11261346 0.121750385 -0.32397106 -0.14738964
-0.017310122 0.044777475 -0.26102436 -0.24664782 -0.081392854 -0.31075084 0.3384297 0.016043603

arith.constant1 f4 [64, 128]
00000000: 4c5a 253e 692a 183e 8667 ebbc 554e 15be
00000010: 3922 153d 5b61 9bbd a1cb 99bc 835d 2d3e
00000020: a02a acbd 4a41 c4bc f786 a63d 2cc7 6c3c
00000030: a76f 0b3e cbbf fabc ea1a b63d b480 26be
00000040: af87 c8bd d0c3 f8bd 3f34 073e 37fc 8a3d
00000050: 8da2 e23d b8d5 fabd 2311 333e eacd 9c3d
00000060: 05d8 313d a7f7 08bd b8a0 e4bc c4f3 003e
00000070: 1e93 2b3e 0b96 34be e652 cdbd 5e53 55bd
00000080: f8da 363d 2638 873d e3c7 10be f587 1bbe
00000090: 1dfa 16be a294 c9bb f067 4bbc 3ee2 6bbd
000000a0: 5eb5 b83d b05f 02be 8089 9f3c 4d90 b7bd
000000b0: f972 263e 67b0 23be ac70 5f3d 953c f03c
000000c0: ff77 bebd 3b76 043e 3e12 083e 8fce 24bd
000000d0: 73df 9b3b bfc8 883d 0c7c 25bc 4fea 05be
000000e0: 8211 d93d 7a2e 083d e65c e2bd ab09 02bc
000000f0: 5fe4 0ebe c92d 14bd 3c82 323c c84b 0e3e
00000100: c856 e4bd 1380 83bc f2e0 ef3d 3dbb 2b3e
00000110: b4e0 983d 7d24 433d 3024 b2bd d601 4d3d
00000120: f8a0 b33d c96f a73d adb6 44be 96ed 273e
00000130: d12b 12be 50fa 0cbe 61b5 fd3d 2588 073d
00000140: 5e57 043e d7e7 4ebd 7942 bd3d 2c7f c1bd
00000150: bb2d d23d 94fe b8bd 98cf e73d 7b8a 393c
00000160: 979f 053e bf83 acbd f7c2 1c3e bb48 763c
00000170: b68e 173e 1096 28be bad1 313b d3a9 73bd
00000180: abf1 6d3d f16e d0bd 75af 06be 37d2 a63d
00000190: 1d1b 26be 820c cdbd 450b 323e dc3b 423d
000001a0: 4324 173d e037 05be 213a 49bc 2c25 39be
000001b0: f371 793d 074b 9cbd d0b3 f9bd 9d45 4abc
000001c0: 85fb 313d 54f9 bcbd 7580 6f3c 7550 52bd
000001d0: 9572 b4bd e124 0fbe dab4 b0bc 4b8f e8bd
000001e0: 0f30 053e 7fd8 3b3d dc2a b23d 5581 adbd
000001f0: dd4d 623b e899 a6bb c380 22be b6a6 3dbe
00000200: 2ff6 c23d 15b5 363e 5629 a6bd 13f9 4ebd
00000210: 5c67 923c 85e9 22be 34db 193e f817 d1bd
00000220: 8d0c 143b fb84 033d a0f8 15be 0cb5 863d
00000230: 3c83 05be 3e98 f73d 9059 c63d 8fc1 32be
00000240: d7f5 06bd 8cb5 153e 4f2c 92bd c97d 853d
00000250: 3ad1 f63d 7ff9 7dbd 0745 1fbe fcad b53c
00000260: 0766 cebc 8ca0 62bd 8cd8 2fbd c1f9 fcbb
00000270: d399 643c 07f8 49be 55af db3c c093 1bbe
00000280: f54b c5bd 41a6 af3d 90cf 32be d6c0 f73d
00000290: 615e ca3d 50d7 7ebd 5664 4ebe cb03 1ebe
000002a0: 2463 11be 38cb febd 9f37 ea3c 1b42 babd
000002b0: af50 20bd f0d8 09bd bc91 02bd abe2 f33c
000002c0: a3a3 523e e3ba 2bbe af0b 94bb 381c 113d
000002d0: a35b 3a3e c37f 0ebe 332e c3bc a28b 04be
000002e0: 17e5 c4bd 5d53 363d b3e9 6ebd d4bc 1e3e
000002f0: d317 053c cead ee3d 9d36 dd3d 4198 d3bd
00000300: cee5 d4bd e4eb e93d 2b36 bbbc 820d dbbd
00000310: 7451 23bd 3b9f fb3d 35f8 293e 1cfd 8ebd
00000320: 6285 22be 510d 0abe 3295 153d 2615 5cbe
00000330: 3862 b23d b500 973d c0b2 f03d a005 f83d
00000340: 9a28 0abe f6cf fa3d fcc8 103d 2671 bc3c
00000350: 93a7 cb3c c730 12be 3be2 893c 4d11 13be
00000360: 88a7 3d3d 4f0e 973c a81f 4ebd ee59 efbd
00000370: d0d5 1fbe aaae 3ebe ec0b 49bd 6cf2 e2bc
00000380: 93d8 1abc 6f90 713d 32d9 25be a544 a53c
00000390: d084 093e e24a 243c 96dc 4a3d 98a4 663c
000003a0: a6e9 323d b33e 323e af87 4a3e 4e58 c4bd
000003b0: 1ef8 f53c d37c b9bc 7a5b 00be b148 313d
000003c0: 13e8 3dbe 35ea f33d 04a1 01bd 2430 c8bb
000003d0: a37d 7f3c f203 3c3c 0d5a a03d da7f babd
000003e0: 3522 e73d 696c fa3d a6c9 b0bd f3e5 053c
000003f0: b02c 4abb 08f0 2dbe da33 283e 8ed6 fc3d
0.16147727 0.14859928 -0.028735887 -0.14580663 0.03640959 -0.075869285 -0.018773856 0.16930203
-0.084065676 -0.023956914 0.08131211 0.014451783 0.1361681 -0.030609032 0.08891852 -0.16260034
-0.097915046 -0.12146723 0.13203524 0.067863874 0.1106616 -0.12247795 0.17487006 0.076564625
0.043418903 -0.033439305 -0.027908668 0.12592989 0.1675534 -0.17635362 -0.10025577 -0.05208146
0.04464242 0.06602506 -0.1413875 -0.15188582 -0.14743848 -0.0061517516 -0.012414917 -0.05758881
0.09018968 -0.12731814 0.019474745 -0.0896307 0.16254796 -0.15985261 0.05455081 0.029325763
-0.09300231 0.12935726 0.13288209 -0.040236052 0.004756862 0.06678914 -0.010100376 -0.13077663
0.105990425 0.03324745 -0.11052875 -0.007936875 -0.13954304 -0.036176477 0.010895308 0.13896096
-0.11149365 -0.016052281 0.11712827 0.16770644 0.07464734 0.04764222 -0.086983085 0.05005058
0.08770937 0.08175618 -0.1921031 0.16399226 -0.14274527 -0.13767362 0.12388111 0.033088822
0.12923953 -0.05051407 0.09241194 -0.09448084 0.10262629 -0.09032932 0.11318892 0.01132452
0.1304916 -0.08423566 0.15308748 0.015031989 0.14800534 -0.16463494 0.0027133063 -0.05948813
0.0580918 -0.101774104 -0.13152869 0.08145564 -0.1622128 -0.10012151 0.17387111 0.047420368
0.036899816 -0.13009596 -0.012281925 -0.18080586 0.060899686 -0.07631498 -0.121925 -0.012345699
0.04345276 -0.09227243 0.014618029 -0.05134626 -0.08810917 -0.13978912 -0.021570612 -0.11355456
0.13006614 0.045860764 0.08699581 -0.08471934 0.0034531273 -0.005084265 -0.15869431 -0.18520626
0.09519612 0.17842515 -0.08113353 -0.050530504 0.017871551 -0.15909393 0.15025026 -0.1020965
0.0022590489 0.032109242 -0.14645624 0.06577501 -0.13038343 0.12089585 0.096850514 -0.17456649
-0.032949295 0.14620036 -0.071373574 0.06518132 0.120516255 -0.062005516 -0.15553676 0.022177689
-0.025195135 -0.05532889 -0.042931125 -0.0077202027 0.01395269 -0.19723521 0.026817003 -0.15193081
-0.09633628 0.08576632 -0.17461991 0.120973274 0.098812826 -0.062217057 -0.20155463 -0.15431134
-0.14197975 -0.12441105 0.028590975 -0.0909464 -0.039139446 -0.033654153 -0.031877264 0.02977117
0.20570235 -0.1677051 -0.0045179944 0.035427302 0.18199019 -0.13915925 -0.02382574 -0.1294389
-0.09614008 0.044513095 -0.05832834 0.1550172 0.008123356 0.11654244 0.10801432 -0.103317745
-0.10395394 0.11421946 -0.022852978 -0.10695936 -0.0398726 0.1228623 0.1659859 -0.069818705
-0.15871194 -0.13481642 0.036519237 -0.21492442 0.0871014 0.07373182 0.11752844 0.12110448
-0.13492051 0.12246697 0.035347924 0.023003172 0.024860179 -0.1427642 0.016831508 -0.14362068
0.04630235 0.01843944 -0.05032316 -0.116870746 -0.15608907 -0.18621317 -0.049083635 -0.027703486
-0.009451049 0.058975633 -0.16196135 0.020174334 0.1342957 0.010027619 0.049526773 0.014077328
0.043679856 0.1740673 0.19778322 -0.09587155 0.030025538 -0.022642529 -0.12534896 0.043282215
-0.1854556 0.11909906 -0.031647697 -0.0061092544 0.015593919 0.01147555 0.07829676 -0.09106417
0.11285821 0.12227709 -0.086322114 0.0081725 -0.003084939 -0.16986096 0.1642603 0.123456106

arith.constant2 f4 [128, 12]
00000000: b24f bebb 073b b7bc 495e 843e 7a4e 06bd
00000010: 0a2e 203e bf9c b5bd 1f6f b73d 2cab d5bd
00000020: e63c 173e c213 05bd d0c0 c93d d684 b9bd
00000030: 9427 5c3e 07cf 2b3e 76a5 16bd 0ab5 54ba
00000040: b43c 0cbe 18e3 553d 848a 033e ca21 803d
00000050: 5b68 4c3e eae6 1a3e 6066 003d f69d 11be
00000060: fb52 c33d 5220 7c3d 07d5 e0bd 89d3 19be
00000070: 9ef0 f93a fc54 f23c f82e 65be 8351 5a3e
00000080: d127 c33d 21e7 243e 8e45 0dbe 0177 2c3e
00000090: 418c dcbd 6f7e 50be 53a6 4c3c 6a63 03be
000000a0: 81e1 dbbc e6aa 3d3d 2dd7 55be 7fd0 1dbc
000000b0: a25a c23c c9fa 3dbd 65c5 1ebe f494 093d
000000c0: decc adbd d92d 34be ca00 393c 2377 3b3e
000000d0: 32e5 05be ee64 71bd 7933 7fbd 3776 a23d
000000e0: 1937 2a3b f83a b8bd c57e 6a3d 74be 15bc
000000f0: 74dd 22be 92f2 023e ab84 acbd 56ee db3d
00000100: 0e49 4f3d 7dad 023e 14d2 e1bc 37ec 8f3c
00000110: 4a62 f8bd 5664 a83d 59ce 02bd 3a99 f3bd
00000120: a089 37be cf06 98bd 01ca f3bb c26c 633e
00000130: fa11 0a3c a3fb 233e 51f4 0c3e 9f76 6abd
00000140: 2b49 69bd 1075 4ebd fcee 4b3d f06f 853e
00000150: ebcf a03d b255 05be 02af 443e 5251 133d
00000160: 6c70 07be e65e 77be d075 063d 0d8e 083d
00000170: ae9f ebbb 94fa 05be b8a3 0a3e b418 8abd
00000180: a2e0 013e 9820 053b 869b 4fbe 9b83 3e3d
00000190: 5d19 383e d13c 6f3c 8c40 f3bd 7ff7 51be
000001a0: 9296 6ebd 25ae 48be 5f30 c63d d67f 80bd
000001b0: de41 183e f543 073e 1c0e 97bd a925 51bc
000001c0: e6bc 043d 3a1d 76bd 0eb3 363d a1e6 84bc
000001d0: 5afe 61be f596 16bc 16d9 503e a014 d73d
000001e0: adc1 41be 7616 13bd 0176 9e3c 4ce3 c3bd
000001f0: 59ab 843e 62b0 8bbd cfbb c0bd f49f 0ebd
00000200: 6d4e 0bbe 98b7 d93b 9162 003c df25 0ebe
00000210: 4347 c4bc 0c1f fc3c 7cc5 8cbd 5a0b 1fbe
00000220: a441 82bd f2e2 993d 604a 3e3d 2c88 87bd
00000230: 0c8b 22be 724d 003e fe74 0bbe a693 11be
00000240: 3144 3abe 2fae f63d be69 c93d 7ba5 86bd
00000250: 1177 a5bd 5643 9f3d 26ce e93d a18c be3d
00000260: fe55 1abe 32a2 ee3d 9d01 8b3e 5553 973d
00000270: 204f 443e ed66 383d ad13 22be b90e 2dbe
00000280: 02a0 06be 399b f4bd 492b 343e e45b 053e
00000290: b854 d6bc 74bc 48be e390 44be 4fc5 223e
000002a0: e868 5cbe 76ad 563e 8d45 b2bc 8729 8c3c
000002b0: 7e93 0bbe 5e3c 463e 74a8 b43c 2beb 1a3e
000002c0: 9e59 e93d 5dda 7cbd 5125 f0bd f72e 593e
000002d0: 1cd8 a7bd 677a e4bd addf 37be f446 11be
000002e0: ca0c 07be 2d3a 0dbd 5810 123e 563f 12bd
000002f0: 296e 513b cd45 38bc 4b61 193d 5682 623e
00000300: 6042 3cbd 1dec 1f3e 5ee9 fa3d f150 4ebd
00000310: 5fe6 0ebe 919a b3bb 6b3b c93d 24e4 353e
00000320: ef97 e83d 5c4f aabd fd73 0e3e 4e2b 1dbe
00000330: b0f2 483e 8996 d73d 00d2 92be a866 283e
00000340: a463 3f3d 4edd f33d 15b6 133e c0f7 e73d
00000350: 3f41 9b3b c25c 19bd 75f9 01be 38e0 33bd
00000360: b8f1 973c b1b4 083e cb12 84bd a66c 103e
00000370: 9b0d 843e 838f 413e 23bf 41be 9c77 c63d
00000380: 11af 7a3e d003 153e 3e39 193e f056 c2bd
00000390: f7c8 80bd 43a5 633d d439 373d 55a3 923d
000003a0: 09c2 b83d 5ef1 f73c 956c b7bd b790 81bd
000003b0: 2efd a73d 4022 24bd dcb8 5a3e e28e 5b3e
000003c0: a057 31be 7b76 1c3e ec55 94bd 5dc1 48bd
000003d0: d6d6 253e 2f4d 3c3b 0c99 073e ebae 623c
000003e0: 736e b1bd cdae 283e fb0a d9bd 0d75 a93d
000003f0: 2363 803d d667 85bd 2972 35bc 845a f23d
-0.0058078403 -0.022367014 0.25853184 -0.032789685 0.15642563 -0.088677876 0.089567415 -0.10433039
0.14769325 -0.032489546 0.09851229 -0.090585396 0.21499473 0.16778193 -0.03677889 -0.0008114135
-0.13695031 0.052218527 0.12845808 0.06256445 0.19961683 0.15127149 0.031347632 -0.14220414
0.09537312 0.06155426 -0.10978132 -0.150221 0.0019068902 0.02958154 -0.22381198 0.21320157
0.09529079 0.16103794 -0.13796064 0.16842271 -0.10768939 -0.2036073 0.012490827 -0.12830892
-0.026840927 0.04630556 -0.20882864 -0.009632229 0.023724858 -0.046381745 -0.15504988 0.03358932
-0.08486341 -0.17595614 0.011291692 0.18307166 -0.13075712 -0.058934145 -0.062304948 0.07932704
0.0025972782 -0.089956224 0.057249803 -0.009139646 -0.1590479 0.12787846 -0.08423742 0.10738818
0.05060678 0.12761493 -0.027565993 0.01756869 -0.12128122 0.082222626 -0.03193507 -0.1189446
-0.17923594 -0.07423174 -0.007439852 0.22209457 0.0084271375 0.1601396 0.13765074 -0.057242032
-0.056954544 -0.05040461 0.04978846 0.26061964 0.07852157 -0.13020971 0.19207385 0.035966225
-0.1322648 -0.24157295 0.0328272 0.033338595 -0.007190666 -0.13083869 0.13539016 -0.06742993
0.12683347 0.0020313617 -0.20274171 0.046512228 0.17978425 0.014601902 -0.11877546 -0.20504569
-0.058249064 -0.19597681 0.09677195 -0.06274383 0.14868876 0.13209517 -0.07375738 -0.012765327
0.03240671 -0.060086466 0.044604354 -0.016223254 -0.22069684 -0.009191264 0.20395312 0.10501981
-0.18921538 -0.035910092 0.019343378 -0.09564838 0.25911978 -0.06820752 -0.09410822 -0.034820512
-0.13604136 0.0066442005 0.007836 -0.13881634 -0.023959761 0.030776523 -0.06873605 -0.15531674
-0.06360176 0.075139895 0.04645765 -0.066177696 -0.15873355 0.12529543 -0.13618848 -0.1421648
-0.18190075 0.12044942 0.09834622 -0.06574532 -0.08079351 0.07776515 0.11416273 0.093041666
-0.15071866 0.1165203 0.27149668 0.07388941 0.19170809 0.045020033 -0.15827818 -0.16900147
-0.13146976 -0.11943669 0.17594637 0.13023335 -0.026163444 -0.19603139 -0.19195895 0.1589558
-0.21524394 0.20964608 -0.02176168 0.017109646 -0.13630483 0.19358966 0.022052981 0.15128772
0.11394046 -0.061731685 -0.117258675 0.21209322 -0.081955165 -0.11156159 -0.1795642 -0.14187223
-0.13188472 -0.03447931 0.14264047 -0.035704933 0.003195653 -0.011247111 0.0374463 0.22120032
-0.045961738 0.15617414 0.122515425 -0.05037016 -0.13955067 -0.0054810722 0.09825786 0.1776281
0.11357104 -0.08315918 0.13911434 -0.1534855 0.19623828 0.10526759 -0.28675842 0.1644541
0.046725884 0.11907445 0.14424928 0.113265514 0.0047380025 -0.037441976 -0.12692817 -0.043915004
0.018547878 0.13350178 -0.06448897 0.14103946 0.2579163 0.18902402 -0.18920569 0.096907824
0.24480845 0.14552236 0.14963242 -0.09489238 -0.06288331 0.055577528 0.044732884 0.07160059
0.09021384 0.03026646 -0.08956257 -0.0632643 0.08202587 -0.040071726 0.21359581 0.21441224
-0.17318583 0.15279572 -0.07242951 -0.04901253 0.16195235 0.0028732528 0.13241976 0.013835649
-0.08663645 0.16472931 -0.105977975 0.08274279 0.06268909 -0.06513946 -0.011074581 0.11833671

arith.constant29 f4 [64]
00000000: 716a abbd ae0b 683d 3f27 acbd e6bf 933d
00000010: 9f7a 4c3c 3c3a 5f3d affd 403d 2b32 143d
00000020: 5fe2 63bd 1311 34bc b9ee c5bb 67d1 ac3d
00000030: 2624 8dbd bfc5 c43d 4220 1c3d d8c6 9dbc
00000040: 6fc0 9ebb 7a41 0ebd 20d7 88ba 7ba2 81bc
00000050: e747 7fbb 004d 06be ee13 3e3d 1edf 2abc
00000060: 7093 383d ada3 c5bc d5f2 6dbc f823 733d
00000070: f74d 19bd 0847 3a3d 1a6b 81bb 2a54 483d
00000080: 07b9 50bd 2fec 363c b806 52bc da2e 3b3c
00000090: fbe6 81bc 701b 5a3d 8ae8 c7bc 1ac9 aeba
000000a0: 62c4 3cbd 35e9 8abd 1031 4d3c 45d4 52bb
000000b0: 6865 90bd 2813 35be df2a 3abd 19de c33d
000000c0: 4f41 153d 6116 13bc a08e 103d d579 373d
000000d0: a022 c6ba 7f39 143c 305f 34bd e974 0f3c
000000e0: f23b 88bc 0bb3 573c a5b5 9ebc f421 1fbd
000000f0: d694 7cbd bf1e ecbc 70ab ae3d 4a5c 3e3c
-0.083699115 0.056651764 -0.08405923 0.07214336 0.012480407 0.054498896 0.04711693 0.036180656
-0.055635806 -0.010990399 -0.006040421 0.08438378 -0.068916604 0.096080296 0.0381167 -0.019259855
-0.004844717 -0.034730412 -0.0010440089 -0.015824547 -0.003895277 -0.1311531 0.046405725 -0.010429172
0.045062482 -0.024125898 -0.014523228 0.059360474 -0.03742787 0.045477897 -0.003949535 0.04890839
-0.050957706 0.011164709 -0.012818985 0.0114247445 -0.01585721 0.053248823 -0.024402875 -0.001333508
-0.046085723 -0.06782762 0.012523904 -0.003216998 -0.07050592 -0.17683089 -0.04545104 0.09563846
0.036439236 -0.0089775035 0.035292268 0.044793922 -0.001511652 0.009046911 -0.04403609 0.008755901
-0.016630147 0.013165246 -0.019373724 -0.03885074 -0.06166538 -0.028823255 0.08528793 0.011618683

arith.constant30 f4 [128]
00000000: bd82 29bd 957d 6c3c 8c57 a6bd 3730 69bc
00000010: c80a 843c 0494 d739 05e5 833c 0d27 5fbd
00000020: cc86 173d 068a 0c3c 18cd bbbb 6851 15bd
00000030: 47aa 9b3d a299 303d 64ff ddbc 072c 993c
00000040: 84d1 04bd 7b23 18be de72 d9bd 98be a23c
00000050: 7f9e b33b fda2 f7bb 1236 72bd f8ed 04bc
00000060: 6136 68bd 77ee a93d 89ab 27be 6867 4dbc
00000070: 4ba9 8dbd 23c5 673d e86e b6bb 1d00 2fbd
00000080: a84b 923c e401 10be a612 9bbc 7227 243e
00000090: a7ff 45bd 7aa7 27bd d4c7 12bd bc17 3c3b
000000a0: c5ef de3d a91c 12bd 4bde 48bd d6d8 19bd
000000b0: 78b2 88bc 855c b4bd 2eea 273c 091c b73c
000000c0: 831e dd3c 7904 423d 3114 11bd e4a8 313d
000000d0: d8ac 343c 4ed0 5bbc fb8c ad3c d188 84bd
000000e0: 9504 a8bd f9a4 0fbd 5526 9fbc 3529 1dbd
000000f0: 3aa0 3b3c fb7b 21bd 11ee 92bc bc17 e73d
00000100: cc1c 90bd a0c9 7b3c 92f1 283d 822a 03bd
00000110: 21c4 813c 10f5 923d 374a 913c e5bd e33b
00000120: f029 6cbd d24e 823c 4f6c 233d 2a27 a0bc
00000130: 07b9 e6bb 8074 273d d22c f83d e79f f6bb
00000140: 4767 99bd 2c83 173c 1641 8bbd b402 1ebe
00000150: f392 5b3d 1a7c b53c 5527 adbd 35f5 eb3d
00000160: 2be4 f6bc 26bf e9bc 9fdf eb3d 6bf5 80bd
00000170: c889 d1bc 1720 d1bd 1a25 e0bc 5b64 c2bc
00000180: d936 64bc 9850 1b3c 2379 9bbd 5dce 663b
00000190: 9fd3 0a3d fcdc 1bbb 1147 04bd 3e08 873d
000001a0: 7757 02bd e225 a33d 5d04 14bd edaf a13d
000001b0: ce5f 43bd 3365 c53d 60e4 debb 4403 dbbd
000001c0: e8a1 a5bd 5ac7 41bd 61da a3bc 2ca7 d6bc
000001d0: c2c3 66bd f683 17bd abaf 7bbd 5902 85bc
000001e0: 0be0 dabd d6a0 803c e645 4ebc 6343 44bb
000001f0: f8c0 b7bc 74b2 85bd 952f b83d fd20 c53c
-0.041384447 0.014434238 -0.08122167 -0.014232687 0.016118422 0.00041118276 0.016100416 -0.0544806
0.036993787 0.008577829 -0.005731236 -0.03645459 0.07600837 0.043115266 -0.027099319 0.018697752
-0.032426372 -0.14857285 -0.10617612 0.019866273 0.0054815407 -0.0075572715 -0.059133597 -0.008113377
-0.056692485 0.08297437 -0.16374029 -0.012536861 -0.06917056 0.05658449 -0.0055674203 -0.042724717
0.017858341 -0.14063221 -0.01892979 0.16030672 -0.048339512 -0.040931202 -0.035835102 0.002870067
0.10885576 -0.035671864 -0.04904012 -0.037560306 -0.016686663 -0.08806709 0.010248704 0.022352235
0.026992088 0.047367547 -0.035419647 0.043373957 0.011027537 -0.013416363 0.021185389 -0.06471408
-0.08203999 -0.03506944 -0.019427458 -0.038369376 0.011451775 -0.039424878 -0.017935785 0.11283824
-0.070367426 0.015367895 0.041246004 -0.03202296 0.015840592 0.07175648 0.017735584 0.0069501274
-0.057657182 0.015906725 0.039898213 -0.019549925 -0.0070411 0.040882587 0.12117924 -0.007526386
-0.07490402 0.009247582 -0.067995235 -0.15430719 0.05360694 0.022153903 -0.084547676 0.11521379
-0.030138096 -0.02853353 0.11517262 -0.0629681 -0.025578395 -0.10211199 -0.027361441 -0.023729494
-0.013929092 0.009479664 -0.07591464 0.0035218217 0.033893224 -0.002378284 -0.032294337 0.06593369
-0.031821694 0.0796621 -0.036136974 0.07894883 -0.04769879 0.09638443 -0.0068021268 -0.10693982
-0.08087522 -0.047309257 -0.020001592 -0.02620276 -0.056339033 -0.036991082 -0.061446827 -0.016236471
-0.10687264 0.015701693 -0.012589907 -0.0029947392 -0.022430882 -0.06528178 0.089934506 0.024063582
